models/best.pt (torch, 861918 bytes, 17 tensors)

encoder.conv2d_1.weight f4 [32, 1, 3, 3]
00000000: 1b7f 91be 2005 c33b 5ef7 163e c7a6 1cbe
00000010: 9a8e 823e 1cd9 d13d 2525 bdbd 1a5a 8b3e
00000020: 00bd 5d3e b01c 4c3e 60c7 033d 2d6a 99be
00000030: 3310 78be 0f7a 0c3e 278f 553e 6281 8e3d
00000040: e551 fb3d fd78 c1bd fe75 943d cf93 203e
00000050: 109f 193e b528 cebe 7d08 d83e 2ef6 7e3d
00000060: f974 92be fc2a b9be 35cc 0cbf 662b bfbe
00000070: a997 153e 425f 213e aede b8be e9b5 72be
00000080: a118 813e 1b23 b1bc 580b 513c d6fd c13b
00000090: eca8 bf3c d2fb 9e3d 7275 493e 4907 873e
000000a0: ea08 68be a78f 6dbd 4e9e 80bf 21fc f7be
000000b0: 1f4b 26bd f784 0fbf 9e60 53bd 7a0d bc3d
000000c0: 2b98 adbe 6266 a93e 8bf3 383e d6fa 843e
000000d0: c7e4 b9bd bdea ccbd f99f abbe 884e 9a3e
000000e0: 8f10 48be f908 0f3e da56 ccbd ce6b 153e
000000f0: f8bf 393e 4841 06be 36c3 d03d e92c 233c
00000100: 90d0 bf3e 548d 11bd e729 4dbf 99ab c5be
00000110: 85b8 38bf 0af9 99bf d467 873d 208f 38be
00000120: c6cc d1be 4ca8 0e3e c0b2 433e 68fc 023e
00000130: ecd8 06be 4342 4d3d 96f8 ea3d cfa6 103e
00000140: 7f6e e2be fec0 b83e 27ac 9dbe d8f3 30bd
00000150: 2e08 423e 8ab9 7dbe c76e adbd 08e5 8d3e
00000160: d53f 683d 1506 743c 5659 d23c c6ec fdbd
00000170: 5c87 2abc ecdf 2c3d 12a1 f33c ade1 de3d
00000180: 3d00 d53d e190 e8bd 090b 333e 8699 d93d
00000190: 9986 143e 7e57 413e e5f3 323e 6fee 2dbd
000001a0: 1acb f73c 08d1 da3d fc2f 50be b322 a2be
000001b0: 54ef 31be 8764 a2be bd2e c9bd df5b bfbe
000001c0: 9467 803e 817d 70be dcc3 64be 543f a5bd
000001d0: 90b2 42be cf94 903e 736a a5bd bc35 52bf
000001e0: cb81 763e c3f9 0fbf a135 b9bd 7f29 abbe
000001f0: 362e 9ebe 7597 9c3e 3aab 7b3e ee51 353e
00000200: a241 35be debe e73d 1ecc 0d3d 7769 cdbe
00000210: c904 9e3d 964f c9bd 3b7e 37be ebf0 593d
00000220: 4643 3b3e cf50 2c3e accb 53be 8d84 753e
00000230: 49d9 2fbe 5d7d 81be 991d b03d 3903 db3c
00000240: 3b3c eb3c c122 25be da29 9cbe 24a2 a13c
00000250: 7149 13be d305 f3bd e68d 093e c4d9 973e
00000260: 00b3 993e d769 6bbf 1401 19be 1a14 053e
00000270: 6e19 59be 9adf bcbb 2435 bb3d aaec b5be
00000280: 86d1 b13e 68e7 d8bd 2feb 4fbe 1897 1ebe
00000290: 8c85 6ebe 523f 34be a0c2 7fbe ead7 0abd
000002a0: 42df 55bd 071a 22bd 9375 30be c01f d83d
000002b0: 8fac 7ebe 2dbf 9a3e ace5 94be ca3f 7b3d
000002c0: a3bd bcbe 938c 8a3e e1a4 6bbd aa7d 4a3e
000002d0: 395d 5bbd 6980 d43d a7f2 d5bd dd11 7d3e
000002e0: e858 383e 13d6 2ebe 7e9b 8d3d eed9 d33d
000002f0: 333c f3bd e460 12bf 59b5 35bf b564 c3bf
00000300: 6ed4 6e3e e587 afbc c8d5 b9be 6f73 4c3e
00000310: 464c e9be 66aa 85bf 05b9 193e fbd3 2ebe
00000320: 5cf0 4f3e d91d 33bd 45d7 bebe 44ec 2c3e
00000330: 8f20 863e e268 843d fe5f 10bd c1b9 033d
00000340: d35e 21be c9f3 f7bd 1513 80bd 77cd 8c3e
00000350: d3fd 2e3c d117 56be 4432 733e 4b15 cabe
00000360: afcc 2fbe e256 36bc b491 aebd 9af0 6b3d
00000370: 4eff d73d 267a 15be b6e6 2bbe 36b2 3dbe
00000380: eb90 4bbe 9e80 75bf 2a10 c5be b215 69bf
00000390: 5426 5cbd 6e5a cf3d 4691 60be 152b e23e
000003a0: 1a65 593e 23f8 3dbc 392b 863e 7cfa bcbe
000003b0: 05d6 c33d a061 a0be 0428 603e a70b b83c
000003c0: 0fb3 9c3d cc1b e53c 4d90 13b9 2163 33bc
000003d0: e660 e83d 36be 223c ae26 1c3e 8a21 213e
000003e0: d957 b03e b34a c3be 363c bfbe 7b17 f3bc
000003f0: 0c94 65be 25d1 adbe fe61 95be 3744 963e
-0.28417286 0.0059515387 0.147428 -0.15297996 0.2549942 0.102464885 -0.092356004 0.2721718
0.21654129 0.19932818 0.03217256 -0.29963818 -0.2422493 0.13718437 0.2085539 0.069582716
0.122714795 -0.09446905 0.07249068 0.15681385 0.15002084 -0.40265432 0.42193976 0.062246494
-0.28604868 -0.36165607 -0.54999095 -0.37337798 0.14608635 0.15758994 -0.3610739 -0.23702206
0.25214103 -0.021623185 0.012759052 0.005920152 0.023395978 0.07762875 0.19673708 0.26372746
-0.2265965 -0.057998326 -1.0048311 -0.48434547 -0.040598985 -0.56062263 -0.051605813 0.09182258
-0.33905157 0.33085924 0.18061654 0.25972623 -0.09076839 -0.1000571 -0.33520487 0.3013804
-0.19537567 0.13968267 -0.09977503 0.14591905 0.18139637 -0.1311084 0.101934835 0.009959438
0.37463808 -0.03553517 -0.8014206 -0.3860748 -0.72156554 -1.2029126 0.066116005 -0.18023348
-0.40976542 0.13931388 0.19111156 0.12791598 -0.13168687 0.05011202 0.11473195 0.14126132
-0.44224927 0.3608474 -0.30795404 -0.043201298 0.18948433 -0.24777809 -0.08468395 0.277138
0.0567015 0.014894028 0.025677364 -0.123986766 -0.010408249 0.042205736 0.02973989 0.10882888
0.10400436 -0.113557585 0.17484678 0.106249854 0.1450447 0.18881032 0.17475851 -0.042463716
0.030248214 0.10684401 -0.20330805 -0.31667098 -0.17376453 -0.3171732 -0.09823368 -0.3737478
0.25079024 -0.23485376 -0.2234034 -0.080687195 -0.19013429 0.28238532 -0.08076944 -0.8211324
0.2407295 -0.5624048 -0.09043432 -0.33430097 -0.3089463 0.30584303 0.24577036 0.17707035
-0.17700818 0.11315702 0.03461849 -0.40119526 0.077157564 -0.09829633 -0.17919247 0.053208273
0.18287382 0.16827701 -0.20683163 0.23976345 -0.17172731 -0.25290957 0.08599395 0.026734935
0.028715244 -0.16126539 -0.3050068 0.019730635 -0.14383484 -0.11866345 0.13433036 0.2965833
0.3001938 -0.91958374 -0.14941818 0.1299595 -0.21201107 -0.00576396 0.09140995 -0.35532123
0.34730166 -0.10591012 -0.20304559 -0.15487325 -0.23293132 -0.1760228 -0.24976587 -0.033897318
-0.05221487 -0.039575603 -0.17232351 0.10552931 -0.24870513 0.3022398 -0.29081476 0.06134013
-0.3686343 0.27060375 -0.057530288 0.197745 -0.0535557 0.10376055 -0.10446673 0.24713846
0.18002665 -0.1707385 0.069144234 0.10344301 -0.118767165 -0.57179093 -0.7097984 -1.5265108
0.23323223 -0.021427104 -0.36295915 0.1996591 -0.45566005 -1.0442626 0.15011986 -0.17073052
0.20306534 -0.043729637 -0.37273613 0.16887003 0.26196715 0.06465317 -0.035247795 0.03215957
-0.15758829 -0.12107045 -0.062536396 0.27500507 0.010680634 -0.20907523 0.23749644 -0.3946937
-0.17167924 -0.011129113 -0.085238844 0.057602502 0.105467424 -0.14597377 -0.16787228 -0.18525013
-0.198795 -0.9589938 -0.38488895 -0.9104873 -0.05374749 0.1012467 -0.21930417 0.44173494
0.21229973 -0.011594805 0.2620485 -0.36909854 0.09562305 -0.31324482 0.21890265 0.022466494
0.0765134 0.027967356 -0.00014072769 -0.010948927 0.11346607 0.009933045 0.1524913 0.1573545
0.34442022 -0.38142928 -0.37350625 -0.029674282 -0.22419757 -0.33948627 -0.29176325 0.2934892

encoder.conv2d_1.bias f4 [32]
00000000: c8cf 96bd b285 9abd f148 de3b 4acf 50bc
00000010: c9dc 8a3d 560a 4ebe 12ec 31bd 4273 fe3d
00000020: 2d75 ce3c 93b6 42bc 9a22 b5bd 340b a5bd
00000030: 1924 893e fb9c 6a3d 7c49 cfbb b732 0fbc
00000040: dd15 85bd 1c3d e63c fd56 4cbe 949c 97bc
00000050: 7e12 94bb 9680 263e 7321 a9bd 615f c93d
00000060: 523f 6cbe 0c38 8e3d 110d 0fbd 2f4b 00bd
00000070: d78e 19be b29e 503d b196 543d e86b c33d
-0.0736385 -0.075450316 0.0067835976 -0.012744734 0.06780393 -0.2012113 -0.043438025 0.124243274
0.025202358 -0.011884349 -0.0884449 -0.080587775 0.26785353 0.057278614 -0.0063258987 -0.008740119
-0.06498311 0.028105311 -0.19955058 -0.01850728 -0.004518806 0.16259989 -0.08258333 0.09832645
-0.2307103 0.06944284 -0.03492457 -0.0313217 -0.14995895 0.050932594 0.051901523 0.09542066

encoder.conv2d_2.weight f4 [64, 32, 3, 3]
00000000: 511d 35be 1815 34be 1c32 c73c 14d6 a73d
00000010: d4bf 8fbe 887b c1be ae97 113e a467 00bd
00000020: bdb3 ecbd 4212 bdbb 8985 f5bd 17aa babd
00000030: d321 04be 0060 5cbe c687 ee3c b09b 68bb
00000040: 2016 463c 1b4d 893c d8c6 09bc c0bc f7bb
00000050: 0ff8 50bd aae0 123d f6a2 61be 57e6 a3bd
00000060: be62 a9bd 8cba 7abd c62b 8b3d 8149 633e
00000070: 8837 363c 8ffc 4d3d ed79 d6bd 34e6 373d
00000080: 2901 32be 4425 4d3e 421e 2abe a311 dfbd
00000090: c0c7 443b bb84 403d f8ba f73c 84c4 49bd
000000a0: 4017 a63d 18e9 f03c b418 633d c44e 9f3d
000000b0: e8ea c23c 468f 9f3c 6a31 02bf 0ad5 c9be
000000c0: a72f 11bf 5aa0 9ebd 3711 9abd 1ee0 f33d
000000d0: a0b9 a43d a67e 75be d5c0 c6bb 56f2 d8be
000000e0: c610 1f3d 1bce 9cbe 8a53 f8bd 0538 f6bd
000000f0: 91d6 bbbc 46e8 83bd 817e a13c b803 833d
00000100: 95fe ea3c 22c7 953d 13f1 153e 8459 dd3d
00000110: 9165 893d 106e 003d 4f97 f5bc 6e46 e23d
00000120: dd7d c3bc 29b1 d83d 6040 e43d f854 243d
00000130: c3f2 973c 6fcc a03c 7d92 063e ddef 563d
00000140: b22f 19be 05a7 45be 17c0 c5bd 70db d43c
00000150: 7e67 94be 83ea 953d 31f1 643d 7620 64be
00000160: a80b 2bbe 4f9a 993b d575 9fbe 20f3 3d3c
00000170: e125 90be 79bf 6abe cba8 45bd c208 50be
00000180: b2de 09be c80c b0bd ee17 843d edcf 14be
00000190: 0afd b1bd eb36 af3d c850 10be 9329 3ebe
000001a0: fb30 01bf 7a91 0fbd d0d2 59be 52ce a2bd
000001b0: 793f 353e 4015 123e e611 9c3d 5cc6 ce3d
000001c0: c551 d83d ebdb ad3d c854 7b3c 43a9 e23d
000001d0: ea5b 123e b970 f2bc 350f dd3c 3712 0c3e
000001e0: e313 a23c bfd8 9b3c c39d 2c3e df8d af3d
000001f0: 6e0c 8ebb a916 603c 69e5 c8bd 0816 2dbe
00000200: caf8 683d 5017 ddbd 481d fbbe c83c 0abe
00000210: fbc7 e63d e50f 05be 2c05 92be b430 8ebd
00000220: 1bfb 19bd 150b a3bd ea76 6bbd bada dcbd
00000230: 56d5 87be 01f9 e5be 2cfa 4abe b517 edbd
00000240: b46b 8a3c 0140 f6be 50ae aabe 4b2a e0bd
00000250: 0896 a03e 540e 423e 21e8 edbc 0bc7 d8bd
00000260: 7d24 813e cf92 193e 2340 2c3d 7f85 293d
00000270: 6288 2a3e 0908 c2bd 1bac d8bc 0ef0 0d3d
00000280: 19f9 c33b 5e3b 02be 3739 2ebd c3a3 333c
00000290: 5969 c93c d3e3 dbbb be2a 633c 34a7 7bbc
000002a0: 43fd c8bc bcd9 26bd cc4f b2bc 4689 42ba
000002b0: 81d5 ab3d 5220 1a3c aa4d 173e 459b cdbc
000002c0: 9713 4f3e 405d 7fbd cb9b 3d3c d96b 363d
000002d0: 7d1a b8bd a30c a4bc 7207 b3bc f669 1dbf
000002e0: 1dd9 2bbf aaa2 13be 9529 b1be 47e4 4b3d
000002f0: 9be9 89bd 9bae ad3d 78c5 2a3e a91c ad3d
00000300: 4370 73bc 242a 853d cd40 2f3e 7540 e13c
00000310: c69b 8b3d 3b1d 0f3e 4f50 c53d 5b53 1b3c
00000320: 6e92 19bd ffb7 513e 1d87 393d bac0 b3bd
00000330: aa2d e4bd 2d49 d5bc 5c89 453e ad7f 163e
00000340: 9fd8 4e3d 0215 cd3d fd60 043d 9d4c 863c
00000350: 3761 3a3c aae5 883a 6d05 203c 0bd6 8e3d
00000360: 45b6 21bd 8793 9bbc fe94 afbc f122 233c
00000370: d882 a2bc b954 ea3c cb81 7b3c dd63 8ebc
00000380: f75d 29bd 906d bebc fe33 fe3d 2e35 303d
00000390: 9b31 813c a449 e63d abdb 2f3e ecc1 be3d
000003a0: 0c84 683d 615e 253d 9895 dfbc 1d06 223e
000003b0: 66c1 a5bc e42e d7bc 9db5 f93d 236c 85bd
000003c0: 6e14 273e 6179 c0bd 0123 b7bd 2415 2b3d
000003d0: 5dae 153c 3ef6 31bd 7c94 7cbd 987f 87be
000003e0: 7d36 d1bc 90f5 5ebe 6525 73be 7d7c cebd
000003f0: 6ef6 8ebe 1bec 32be f89c 51be f89f c1be
-0.17686965 -0.17586172 0.024315886 0.08195129 -0.2807604 -0.3778956 0.14218017 -0.03134884
-0.1155772 -0.0057699988 -0.119883604 -0.09114473 -0.12903528 -0.21520996 0.029117476 -0.0035493188
0.012090236 0.0167604 -0.008409224 -0.0075603426 -0.051017817 0.035858788 -0.22034821 -0.08002918
-0.08270787 -0.06121306 0.067954585 0.22196008 0.011121638 0.050289687 -0.10472474 0.044897273
-0.17383255 0.20033747 -0.16613105 -0.10892036 0.0030026287 0.04700158 0.03024052 -0.049259678
0.08109903 0.029408023 0.05544348 0.07778695 0.023793653 0.019477498 -0.5085665 -0.39420348
-0.56713337 -0.077454284 -0.07522815 0.11907981 0.08043218 -0.23974094 -0.006065468 -0.42372388
0.038834356 -0.30625996 -0.12125309 -0.12022404 -0.022929462 -0.06440787 0.019713642 0.06397194
0.028685847 0.07313372 0.14642744 0.108080894 0.067088254 0.031354964 -0.029979376 0.1104859
-0.023863727 0.105806656 0.11145091 0.040120095 0.018548375 0.019628732 0.13141818 0.052474845
-0.149596 -0.19301994 -0.09655779 0.025983542 -0.28985208 0.0732012 0.05589408 -0.22278008
-0.16703665 0.0046875845 -0.31144586 0.01159361 -0.281539 -0.22924604 -0.048256677 -0.20315841
-0.13463858 -0.08596188 0.06449877 -0.14532442 -0.086908415 0.08555397 -0.14093316 -0.18570547
-0.50465363 -0.035050847 -0.21271825 -0.07949509 0.17699994 0.14265919 0.07620601 0.10096428
0.10562471 0.08489212 0.015340038 0.1106744 0.14292875 -0.029594766 0.02698479 0.13678823
0.019784873 0.019024251 0.16857056 0.08571982 -0.004334978 0.013677278 -0.098093815 -0.16902936
0.05687789 -0.10795462 -0.49045777 -0.13499749 0.11268612 -0.12994345 -0.2851957 -0.06942883
-0.03759299 -0.07961098 -0.057486452 -0.10783906 -0.2652995 -0.44916537 -0.19821995 -0.115767874
0.01689706 -0.48095706 -0.33336115 -0.10945567 0.31364465 0.18950778 -0.029041352 -0.105848394
0.2522315 0.1499741 0.042053353 0.041387077 0.16653588 -0.09474189 -0.026449254 0.034652762
0.0059806225 -0.1271796 -0.042535033 0.010964337 0.024586366 -0.0067105084 0.013865171 -0.015359689
-0.024534827 -0.04073499 -0.021766566 -0.0007420968 0.08390332 0.00940712 0.1477572 -0.025098452
0.20222317 -0.06234479 0.0115727885 0.044536445 -0.08989427 -0.020025557 -0.021854136 -0.6148981
-0.67128164 -0.1441752 -0.34602037 0.04977825 -0.0673401 0.08480569 0.16676891 0.08452732
-0.014858308 0.06502178 0.17114563 0.027496556 0.06816821 0.13975994 0.09634458 0.009480323
-0.03749316 0.20480345 0.04529487 -0.08776994 -0.11141522 -0.02603587 0.1929068 0.14697142
0.050499555 0.100137725 0.032319058 0.016393954 0.011375717 0.0010444422 0.009766919 0.06974419
-0.039480466 -0.018991245 -0.02143335 0.009957061 -0.019837782 0.028604852 0.015350769 -0.017381603
-0.041349377 -0.023245603 0.124122605 0.043019466 0.015770724 0.112445146 0.1717364 0.093143314
0.056766555 0.04037321 -0.027293012 0.15822645 -0.020233821 -0.026267476 0.12192843 -0.06514766
0.16316387 -0.09398151 -0.08942223 0.04176821 0.00913581 -0.043447725 -0.061665043 -0.26464534
-0.025538677 -0.21773362 -0.23744734 -0.10082338 -0.27922386 -0.1747288 -0.20470035 -0.3781736

encoder.conv2d_2.bias f4 [64]
00000000: 89cb b63d df18 83bb c43c 8ebc c52b c9ba
00000010: 863a 93bb 658b 38bd 26b2 cfbc 23f6 9c3c
00000020: 3358 c63c 72d0 853d af60 11bd 90bd 633d
00000030: 26c4 b8bd 35a3 d1bd e533 b63d 1cfc 4f3e
00000040: 613b cebd 5ffa d9bc e35f aabc d307 9ebc
00000050: 7a8f 3fbd c97c 9bbb 5c47 7f3c fd35 cd3d
00000060: 5427 5e3d ac18 12bd 67bf bdbb 7197 a5bd
00000070: 1ec3 36bd 998e 0b3c e0ac 7dbc 2f02 003e
00000080: db7e 343d 340f cfbb 81e6 78bd c2a7 95bc
00000090: 6af4 0a3e b5da 6e3d bbcb cbbb b5ff b33c
000000a0: a83a 50bd a2f8 613c 6ac8 c8bd 83ed 60bd
000000b0: 1d06 32bd 675a ab3d 1109 823d 7216 fabc
000000c0: cf3f d33d 7dd0 1c3c a4bf ed3c 5944 423c
000000d0: 78d2 88bd 9314 85bc 74f9 bd3c d617 d7bb
000000e0: e1e1 5bbc 67e3 f1bc b1d5 193e effb 9cbc
000000f0: c23a bdbc 3891 b2bd 5828 fa3a 3b19 99bd
0.0892554 -0.0040007676 -0.01736296 -0.0015348127 -0.0044930605 -0.045054812 -0.025353502 0.019160336
0.024211979 0.065338984 -0.035492595 0.055600703 -0.09021787 -0.102362074 0.08896617 0.20311016
-0.100699194 -0.026608644 -0.020797675 -0.01929084 -0.04676769 -0.0047451 0.015580978 0.10020063
0.054236725 -0.03566806 -0.005790639 -0.08085526 -0.044619672 0.008517885 -0.015483111 0.12500833
0.04406629 -0.006318951 -0.0607667 -0.01826847 0.13569799 0.058314044 -0.006219355 0.021972517
-0.05083719 0.013792189 -0.09803851 -0.05491401 -0.04346286 0.08366852 0.063493855 -0.03052828
0.10314905 0.009571192 0.029022045 0.011857116 -0.06680769 -0.016245162 0.023190238 -0.0065641208
-0.013420553 -0.02952738 0.15022923 -0.0191631 -0.023099307 -0.087191045 0.001908551 -0.074755155

encoder.conv2d_3.weight f4 [128, 64, 3, 3]
00000000: fd07 c2ba f5a3 c0bc 351f 65bc f4aa be3c
00000010: 56dc e5bc 31f5 4dbc 4233 2ebd 0092 09bc
00000020: 337c bebc dc15 86bc 041f df3c e0a0 1fbd
00000030: 9d7b f0bc b65c 11bd 24ce 7dbc c833 f2bc
00000040: f6f4 7b3b 7ac1 243c 2dfa 20bb 3f11 1dbb
00000050: fe4a bdbc c399 1dbc 7920 12bd 1c2e c63c
00000060: d29d 14bd 210b 83bb ec86 51bc c65d 12bd
00000070: f344 c6bc d647 d7bc c586 2fbc f77c 9f3c
00000080: 4ffd 98bc 9cb1 1cbd 52ad 783b 301a f83b
00000090: a762 a2bc ac6f c03b 8259 c2bc 492f 88bb
000000a0: 1c50 06bd f833 8039 1813 b6bc 352e d2bc
000000b0: cb5b 1ebd 2f50 dfbb 43e1 1dbc bc21 32bc
000000c0: 08a1 b93a 70a0 b93c 8490 f6bc c251 afba
000000d0: 8cee e6bc 4ed9 42bc ba99 a9bb bfe6 02bd
000000e0: a05a e2bc 3cc6 35bc 7ff1 07bb de34 fabb
000000f0: d0d0 753c 4921 29bd 809b 80bc 6079 873c
00000100: e6de d7bc 217f 03bd f6de ba3c a6e1 cc3b
00000110: 1c20 d63c ee4f c0ba dfed b33c f9fb 1abd
00000120: cea0 b7bc d457 7abc bf0d 4cbc b238 083b
00000130: 1f8c 693c e79e e03c acfd 3abc 33b3 f5bc
00000140: cead 1dbd 69f2 21bd 5ce5 dfbc 643f f4bc
00000150: f4a0 913c 190e 0abc ef6c ac3b faae 1abd
00000160: d4b6 8cbc fc61 383b 880f bc3c 13e7 05bd
00000170: f685 10bd a98c 08bd d1fb 9a3c 679f 70bb
00000180: 2f48 a83c c31c 953c cc20 743c cacc 13bc
00000190: db8b 0a3c fd31 0f3c 2c2a 9b3c e574 e1bc
000001a0: e362 5cbc 71c1 d33c 137d c2bc c1a3 02bd
000001b0: 6e5f c7bc 8675 893a afbd 6ebc 6507 b13c
000001c0: 4511 ed3c 2afa f2bc 668a 923c ffcb 1f3c
000001d0: 43d5 3a3b 98c6 a53c a8e9 1e3d ab89 2a3d
000001e0: 9982 1f3b b2af bc3c 3e83 8f3c e84c aebc
000001f0: 6c6f 7dbb 54f7 cebc b077 0ebc 3949 23bb
00000200: 45e2 afbc e55a b9bc cd51 583c d736 cf3b
00000210: 2eb0 0a3b 6332 f5bb 1c7a 28bd 42f8 5cbd
00000220: f818 49bc bdca 113b 26d0 e3bd 331a ccbd
00000230: cd9d 9ebd 6ea1 5abd 2bca 4abd 40bc a0bc
00000240: fb26 9a3c 1bd7 193d 62f6 fcbb 9134 0b3d
00000250: 5367 01bc 0508 073d e65f 343c 31ee cfb9
00000260: 5da4 f43c cc2d 073b 5130 973a c5ca debb
00000270: 1f89 61bc 650e 18bb a703 3e3c 3cab 95bc
00000280: 1eb5 2b3c 08e4 1abd 826e 09bd 52ec 533c
00000290: 6687 88bb 61d6 63bb 54d2 7f3c 6450 6a3c
000002a0: 6ec2 293c 4b7d 9dbc 58e5 5837 7c89 7f3c
000002b0: 8105 833c 827f 41bc 582f dcbc 4f96 963c
000002c0: 8638 15bd 1422 3b3a 48a7 11bd ee58 fbbc
000002d0: d69b 18bd e188 ea3c 6014 a7bc 794d 85bc
000002e0: 3c80 08bc 892d 743c 689b 1abd 9d7e 0f3c
000002f0: 05e5 c6bb b348 3bbc e328 febc ac18 12bd
00000300: dd1b afbc 25c0 883b 7f38 ad3b 1286 09bd
00000310: a369 153c 8624 473c 90f1 5bbb 61c8 36bb
00000320: 98ac 0bb9 9c0c a23c 6ea2 cbbc 20e4 09bd
00000330: b6f8 08bd caed 61bc 7846 05bd 9498 af3c
00000340: 38ee 8c3c 88d0 0a39 4dec f8bc 2e5a 6c3b
00000350: 1809 88bc 87ab d3bb 0e6c 7a3b 9d1d 1b3c
00000360: aa35 6c3c fed8 803b 2df5 9ebc eb29 a13c
00000370: 912c 80bc 3edd febc 1712 a73c f0d1 933c
00000380: b713 603c 6f80 9bbc 1af4 bdbc ac2a e13c
00000390: 39b8 0ebd c063 b73c a9bf ac3c 5c14 b43c
000003a0: f0aa 0bbd 6f09 8f3c b9da 00bd d04c 7d3b
000003b0: fa99 d9bc 14c9 59bc bb0d 12bd 0a9f e4bc
000003c0: 97bf 21bc 0a82 5dbb 8a76 08bd 7cc8 90bc
000003d0: 184e cabc db52 44ba f293 eebc 08aa ef3b
000003e0: 0bde 9a3c 8f25 043c 43a4 213d 5775 403c
000003f0: 22d4 2b3b 9a80 4d3c a065 44bc 4e52 26bc
-0.0014803406 -0.02351568 -0.013984491 0.023274876 -0.028059166 -0.012570665 -0.042529352 -0.0083966255
-0.023252582 -0.016367845 0.02723647 -0.03897178 -0.029355818 -0.035488807 -0.015491042 -0.029565707
0.0038445569 0.010055894 -0.002456318 -0.0023966578 -0.023107048 -0.009619179 -0.0356755 0.024191909
-0.03628332 -0.0039991294 -0.012788516 -0.03573396 -0.0242028 -0.026279371 -0.010713284 0.019468768
-0.018675474 -0.03825532 0.0037945104 0.007571481 -0.019822432 0.0058726873 -0.023724321 -0.0041560275
-0.032791242 0.00024452782 -0.022225901 -0.025656799 -0.03866176 -0.0068149786 -0.009636226 -0.010872301
0.0014162371 0.02265951 -0.030098207 -0.0013375806 -0.02818992 -0.01189263 -0.0051757963 -0.031958338
-0.027631104 -0.011094626 -0.0020743308 -0.007635697 0.015003398 -0.04129151 -0.015699148 0.016537368
-0.026351403 -0.03210366 0.022811394 0.0062524853 0.026138358 -0.0014672258 0.021964012 -0.037837956
-0.022415545 -0.015279729 -0.012454449 0.0020785746 0.014254599 0.02741952 -0.011413019 -0.029992675
-0.03849583 -0.03953782 -0.027331047 -0.029815383 0.017776944 -0.008426213 0.0052620093 -0.037764527
-0.017177023 0.0028134575 0.022956625 -0.032691073 -0.035284005 -0.03333727 0.018918904 -0.0036716105
0.020542232 0.018202191 0.0149003975 -0.0090209935 0.008456196 0.0087399455 0.018941008 -0.02752156
-0.013451311 0.025849076 -0.02374128 -0.03189445 -0.024337497 0.0010487295 -0.014571591 0.021609971
0.028938899 -0.029660303 0.01788826 0.009753226 0.0028508462 0.020236298 0.03879705 0.041635197
0.0024339317 0.023032997 0.017518636 -0.021276906 -0.003867115 -0.02526442 -0.008695528 -0.002491547
-0.021470198 -0.02262635 0.013203097 0.006323676 0.002116214 -0.007482813 -0.041132078 -0.053947695
-0.012274019 0.0022246086 -0.111236855 -0.099659346 -0.07744942 -0.053376608 -0.04950921 -0.019621015
0.018817415 0.037558656 -0.007719801 0.033985678 -0.00789817 0.032966632 0.011009192 -0.00039659583
0.02986353 0.0020626662 0.0011534785 -0.0067990744 -0.013765602 -0.002320194 0.0115975505 -0.018270127
0.010480193 -0.037815124 -0.033552654 0.012934761 -0.0041665314 -0.003476523 0.015614111 0.014301393
0.010361297 -0.019224783 1.29280015e-05 0.015596744 0.015993835 -0.011810185 -0.026878044 0.01838222
-0.036430858 0.0007138562 -0.035559922 -0.030682053 -0.03725799 0.028629722 -0.020395458 -0.016272293
-0.008331355 0.014903435 -0.037745863 0.008758214 -0.0060697817 -0.011430907 -0.031025356 -0.03566806
-0.021375591 0.004173296 0.005286276 -0.033575125 0.009119424 0.012154704 -0.003356073 -0.0027890431
-0.00013320369 0.019781403 -0.024857726 -0.033664823 -0.033440314 -0.0137896035 -0.032537907 0.02143506
0.017203435 0.0001323839 -0.030386114 0.0036064493 -0.016605899 -0.0064596566 0.0038211378 0.00946751
0.014417091 0.0039321175 -0.019404018 0.019673308 -0.01564625 -0.031111356 0.020394368 0.018044442
0.013676575 -0.01898214 -0.023187686 0.027486168 -0.034843657 0.022386432 0.021087484 0.021982364
-0.034098566 0.017460553 -0.03145859 0.003865052 -0.02656268 -0.01329257 -0.035657626 -0.027907867
-0.009872339 -0.0033799433 -0.033316173 -0.017673723 -0.024695441 -0.0007489153 -0.02912328 0.0073139705
0.018904706 0.008065595 0.039463293 0.011746726 0.002621897 0.012542868 -0.01198712 -0.010151459

encoder.conv2d_3.bias f4 [128]
00000000: 1483 713c de7f a93c 26ab e4bc 8e74 583c
00000010: 1ee6 303c e1ee f93c 08bd 99bd 9e98 e63d
00000020: 534e 1c3d 8719 7e3c 04ad c33d 094a 893d
00000030: fc56 4f3d 1957 6f3d 4a42 233d 4388 5ebd
00000040: 635f 3fbd 4b5a a2bc eae5 ae3a 3fcd 2fbb
00000050: 2c99 27be 1bd5 82bd 2928 173c eca8 f03d
00000060: 12b1 febd 9d1e 1ebd ff2f dabb 01d2 133d
00000070: 6e02 34bd c2d2 30bd f3a3 7c3c 6f18 52bd
00000080: 309f 553d 900b 783d f58a a7bd f3c5 aa3d
00000090: ff0d 1fbc 8450 0c3e 96c7 84bd 9197 eabc
000000a0: 09b1 1d3d 8603 c4bc d27d a8bc f2ee 0d3c
000000b0: e813 ed3d 35bb 29bc 8454 debd b4f3 7cbc
000000c0: 6e4d f7bc a3a0 12bd 1d40 6a3d d9c6 09bd
000000d0: f25b 413d ccad 853d e9c4 853c 6547 f5bb
000000e0: b035 15bd 2d8a 8b3d 1c13 d6bc 67ed 62be
000000f0: 823c 91be 8e72 6ebc b52d e9bd c423 363e
00000100: caef 41bd d94f 47bd 0c70 97bd dd10 a4bd
00000110: b94e 8f3d 4d3e cbbd 5964 7b3d c89b 103e
00000120: c0cf 1dbd be0f 4cbd 590a 75bd f1b8 bc3d
00000130: 3765 e23d cc6b fcb9 36ba 6bba 1e5d 6dbd
00000140: cd11 34bd fe47 d43d 76da d63c e83d bd3d
00000150: 5a7b 36bd 6fd2 833d 594d 97bd a5bb 9b3c
00000160: 7a7b 983d ffb3 c8bd c80b 39bd 48c9 3ebc
00000170: 9121 6a3d e87e 00bb 3aa1 b53d 9219 02bc
00000180: 1f0e 733c 51c4 e63c 2a23 c3bc 47fe 9fbd
00000190: 255d f63b a428 f73b cd19 52bd b0e8 633e
000001a0: b32d 48bd 546a c3bb 9583 9d3d d434 ac3d
000001b0: 9f81 973d 5c00 64bd 1399 83bd f687 53be
000001c0: c81a a7bd d7e0 e53d 2a31 123b 512b 09bd
000001d0: 5d05 123b 0488 0ebe 1f95 30bd b116 8bbc
000001e0: ef83 06bd 6afc 7c3d f619 31be 7f3a a6bc
000001f0: 8cc2 863c 4d68 ddbd a6fc ce3b 2a71 193e
0.014740724 0.020690855 -0.027913641 0.013211383 0.010797052 0.030509414 -0.07506758 0.11259578
0.038160633 0.015509016 0.095544845 0.06703574 0.050620064 0.058432672 0.03985814 -0.054329168
-0.046721827 -0.019818446 0.0013343666 -0.0026825217 -0.16367024 -0.06388303 0.0092258835 0.11750969
-0.12436117 -0.038603414 -0.0066585536 0.036088947 -0.04394763 -0.043169744 0.015419948 -0.051292833
0.052153766 0.0605579 -0.08180801 0.08338537 -0.009707927 0.1370259 -0.064833805 -0.028636726
0.038498912 -0.023927461 -0.020567808 0.008662926 0.115760624 -0.010359575 -0.10855964 -0.015438963
-0.030188289 -0.035797726 0.05719005 -0.0336369 0.047206827 0.0652729 0.016329246 -0.0074853175
-0.036428154 0.06813464 -0.026132159 -0.22160874 -0.28366476 -0.014553679 -0.11385671 0.17787081
-0.04734782 -0.048660133 -0.07394418 -0.08011029 0.06997437 -0.09923992 0.061374996 0.14121926
-0.038528204 -0.0498197 -0.05982432 0.09214962 0.110544614 -0.000481455 -0.0008992286 -0.05795013
-0.04396229 0.10365294 0.026227217 0.09240323 -0.04455123 0.064366214 -0.073878 0.019010374
0.07445426 -0.097999565 -0.04517725 -0.011644669 0.057160918 -0.0019606892 0.08868642 -0.007940667
0.01483491 0.028169783 -0.023820478 -0.078121714 0.007518428 0.0075426865 -0.051294137 0.22256732
-0.048871707 -0.005963603 0.07691113 0.08408514 0.0739777 -0.055664405 -0.06425681 -0.20657334
-0.08159405 0.112245254 0.0022307136 -0.033488575 0.0022281029 -0.13919073 -0.043110963 -0.016978594
-0.032840665 0.06176416 -0.1729506 -0.020291565 0.016450189 -0.108109094 0.006316739 0.14984575

encoder.linear_mean.weight f4 [2, 2048]
00000000: db7a b1bc 0b17 183c e80a 883c 2100 663c
00000010: bc43 b43c a345 f53a 8508 34ba 7c3a 2b3c
00000020: d583 903c dabd 123b 5aba 923c 9925 363b
00000030: d2d6 9dbb 398a 4d3b 4241 8e3c 3c83 12bc
00000040: 8900 6f3c 8100 94bc b949 8fbe 0c50 1e3e
00000050: 43d0 1c3d c76b 8c3d 1fb1 093e a906 ac3d
00000060: 4e8b 5cbd fb2a f13d 9c3f a0bd 8e90 2bbb
00000070: 79a0 9a3d 8dbd 39bb 3506 c7bd 7b04 f83c
00000080: fc6b 5cbc d5bf 3fbb 1458 6e3c 3953 963b
00000090: 91d3 4fbc 5433 993b 8ffd 4dbc 05d7 0dbb
000000a0: 2f02 52bc fe06 593a 6334 923c 6e4a 1bbc
000000b0: d2c6 ac3c 03f7 f5bb 6311 c53c da2d 66bc
000000c0: d64a f7bc a656 b5bc 6d01 8cbc ad58 a9bc
000000d0: 417c cb3b 7876 a5bc 345a b73b 1ebc 08bd
000000e0: 2c21 cebb 35e6 06bc 0ae5 073c b920 81bb
000000f0: 6035 1b3c 82b3 bebb e690 05bc 6078 a13b
00000100: 5385 8fbc 260e 943d 0a61 833d c993 053d
00000110: 0ef3 d73c 9c54 13be 258c 87bd d1c9 773c
00000120: 83e2 153e 5881 45bd 7bce debe 7f78 16bd
00000130: f7bf c83c 49ff ddb9 bb7c d6bd 1e9a 143d
00000140: e5d0 803c 2397 80be b4cb c43b 0f41 c9bc
00000150: 39c0 42bf f891 6ebd 1bb4 d8bb 8091 2e3e
00000160: 1119 be3d c5c4 7b3d 76c7 4cbc 449e e63c
00000170: c38b f63b e8c1 243e b145 0b3d 7c40 753d
00000180: 0d6f d73d 57d4 8bbc 738f d2bc 3083 56bb
00000190: 1a22 ce3c 3fd2 bf3b 30aa a1bb a064 473a
000001a0: b2df ec3b 70fa b6bc 2ab2 9a3e 3e41 843c
000001b0: 6ac4 003b 23da c63c 5df5 4a39 2fde 543c
000001c0: dfb7 a33c d6bb 67bc d926 013d 03f9 83bd
000001d0: 59fb 373d de2b 0fbd d6a6 8fbd 3d6c 3dbc
000001e0: b6f5 f3bd 5a7d 613d 45d6 91be d0b5 d03d
000001f0: 3c94 9ebd 85f2 6e3d 8900 01bd 5599 4dbd
00000200: 6efc 2fbd b106 a33c f717 11be 6d11 a8bb
00000210: ee8e ec3d 2a62 5e3d 013d 3b3c 8566 73be
00000220: 6001 823c 2d24 46be ea07 0c3d d622 183e
00000230: e1e9 363c 60f3 f1bd 249b b93e fb40 ebbc
00000240: c743 bb3c 7b74 183b 27ef 89bc ce92 843d
00000250: 54e6 80be 70b4 fabb c9d9 963c 4aa0 913c
00000260: b8e3 88bd 7f98 64bb f981 11be cd00 abbd
00000270: c06d 54bd ed86 be3a 3dfc de3a 23cb 303d
00000280: 41dd e43d a21c e7bc f25f e23d 12ab 3f3e
00000290: 759d 18bf 9848 c0bb b568 f1bb d56f 193e
000002a0: f7f5 323d 1f1d 233e d65c 35bc 63ed ac3d
000002b0: 6afb 86bb e9e1 06bd bd05 bdbc 3a7f 77bd
000002c0: ceca 5cbb 16c6 babd 71fa 15bc 1d91 09bd
000002d0: 6294 62bd 7fb4 0b3d 98da 2cba 126b 9aba
000002e0: f122 89bd 5cd3 4b3e 7e65 df3b f04c 9dbd
000002f0: 1b61 15be 6f30 bbbd 16ff 11bd a4eb cfbd
00000300: 6cd2 babd 2416 58bd 5666 9dbc cffc 27bb
00000310: 6ab1 17bd 454d a3bc 67d6 bebc 301c da3c
00000320: 4c06 71bd ae25 3dbd 50ed 7f3e 5258 e73c
00000330: 8ec5 2e3c d967 ca3d 26d5 223d 191b a3bd
00000340: 1003 0ebd 090d 683b f7eb e7bb 4e77 213d
00000350: a432 2a3d 74f7 d93c 95ec c03e 0890 8fbb
00000360: 3390 59bd 7a45 773d 70d0 18be 418f 71bd
00000370: a115 e33c 2c4f 5e3c 86ef 0ebf fd7e 1abd
00000380: 8ee1 12bc 5726 04bd da4b c9bb 274c 213c
00000390: e1e8 1c3d c5ea 68ba 9dba bc3d 6044 393e
000003a0: 4291 e93d 487f 213c 4431 763e 8916 24bd
000003b0: 1812 53bd 7ebb 50bd 997f 833c c2ff 2abc
000003c0: 4faa 17bc 8c38 223d 7713 fabc aa2b f2bd
000003d0: f79a 22bc fd57 f93c 0caa 0c3e cac3 81bd
000003e0: 2faf 58bd b4e5 783b 909c 3d3e e44e b8bd
000003f0: df01 bebc c60d dbb9 0da0 123f 7592 66bc
-0.021665027 0.009282838 0.016606763 0.014038117 0.022004955 0.001871277 -0.00068677246 0.0104509555
0.017640987 0.0022390992 0.017911125 0.0027793406 -0.0048168683 0.0031362905 0.017365102 -0.0089424215
0.01458753 -0.018066647 -0.27985933 0.15460223 0.03828455 0.068564944 0.13446473 0.08399708
-0.05384379 0.11775776 -0.078246325 -0.002617869 0.07550139 -0.002834174 -0.09717981 0.030275574
-0.01345348 -0.0029258628 0.014547367 0.0045875576 -0.012684719 0.0046753082 -0.01257266 -0.0021643054
-0.012817903 0.0008278935 0.017847246 -0.009478195 0.021090899 -0.0075062527 0.024056142 -0.014049018
-0.030187052 -0.022136044 -0.017090524 -0.020672167 0.0062098806 -0.020198092 0.00559547 -0.033382528
-0.0062905755 -0.008233597 0.008294353 -0.0039406684 0.009473175 -0.005819739 -0.008152222 0.00492768
-0.017519629 0.07229261 0.06414993 0.032611642 0.026361015 -0.14387745 -0.06618527 0.0151238
0.14637189 -0.048219055 -0.43516907 -0.036736008 0.024505598 -0.00042342607 -0.10473009 0.03627979
0.015724609 -0.25115308 0.0060057286 -0.024567155 -0.7607456 -0.058244675 -0.006613267 0.17047691
0.09282125 0.06146695 -0.012498727 0.028151639 0.007523985 0.16089594 0.03400201 0.05987595
0.10519228 -0.017069025 -0.025703168 -0.0032732002 0.025162745 0.0058539207 -0.004933618 0.0007606242
0.007228815 -0.022336215 0.30214053 0.016144391 0.0019648322 0.024273938 0.00019355626 0.012992426
0.019985138 -0.014143905 0.03153119 -0.064439796 0.04491744 -0.034953944 -0.07014243 -0.011561451
-0.119121 0.055051185 -0.28483787 0.10190928 -0.07743117 0.058336753 -0.03149465 -0.050195057
-0.042965345 0.019900652 -0.14169298 -0.0051290304 0.11550699 0.054292835 0.011428119 -0.23769577
0.015869796 -0.19349737 0.034187235 0.14857039 0.0111641595 -0.11813998 0.36251175 -0.028717509
0.022859467 0.0023262787 -0.01683767 0.06473313 -0.25175726 -0.0076509044 0.018414395 0.017776627
-0.06684059 -0.0034880934 -0.14209737 -0.08349762 -0.05186248 0.0014536061 0.0017012429 0.043162476
0.11175013 -0.028211895 0.11053456 0.18717602 -0.5961526 -0.005868029 -0.0073672184 0.14984067
0.0436916 0.15929078 -0.011069497 0.084437154 -0.0041193264 -0.03293029 -0.023074025 -0.060424067
-0.0033690217 -0.09119813 -0.009153948 -0.033585656 -0.05531729 0.03410768 -0.00065938523 -0.0011781177
-0.06696118 0.19904846 0.0068175187 -0.0768069 -0.14587824 -0.09140097 -0.03564366 -0.10152367
-0.09122166 -0.05275549 -0.019213837 -0.0025632863 -0.03703443 -0.019934306 -0.023295594 0.026624769
-0.058843896 -0.046178512 0.24992871 0.028240357 0.010667218 0.098830886 0.039754055 -0.07964153
-0.03467089 0.003540816 -0.0070776897 0.03942042 0.0415522 0.026607253 0.37680498 -0.0043811835
-0.053116035 0.060368992 -0.14923263 -0.05897451 0.027720274 0.013568681 -0.55834234 -0.03771876
-0.008964909 -0.032263126 -0.0061430754 0.009844816 0.038308028 -0.0008885081 0.09215281 0.18092489
0.11404659 0.009857006 0.24042231 -0.040060554 -0.051530927 -0.050960056 0.016052054 -0.010436954
-0.009256913 0.03960471 -0.03052686 -0.118247345 -0.009924642 0.030437464 0.13736743 -0.06336172
-0.052901443 0.003797871 0.18516755 -0.08999422 -0.023194252 -0.00041781197 0.5727547 -0.014073004

encoder.linear_mean.bias f4 [2]
00000000: a165 813c 9e6d 05bd
0.01579553 -0.032575242

encoder.linear_logvar.weight f4 [2, 2048]
00000000: c5a8 90bb cd44 0abc b7dc 5d3b 3cc3 463c
00000010: cc1d 653b aef8 90bc b2fc 32ba 0414 85bc
00000020: 17fb 4ebc 80cd 983b 70e8 c239 836d 393c
00000030: 0daa 5cbc 8edb e33b 05a4 22bb 5499 cfba
00000040: e8eb 5fbc e8e8 ab3d 1e29 ca3a 643a 84bc
00000050: 33a6 fdbc aac8 36bd 81ac 083d ca9f e03d
00000060: ada0 b13d 7007 91be 880f 593e d207 9ebd
00000070: bde8 f0bc f6b6 e13c 598e 6b3b 60ba 50bd
00000080: 39e5 a1bc 1619 2b3c 6b0f f8bb 0c53 93bc
00000090: cf6e bfbc 5255 193a 6cc1 1c3c 3aa1 b8bc
000000a0: 8494 953b 3626 79bc 4677 0cbc d07b 9fbc
000000b0: a18c c7bc f399 c439 32f4 a9bc 5147 3fbb
000000c0: c827 03ba 0681 87bc 1919 cebc 5fd9 0bba
000000d0: 844e 18bd e516 963b 29cb b7bc 0b9a abbb
000000e0: c055 ffbc a5e6 1cbc a821 bdbc cddc 22bc
000000f0: f62a 223c 1cf4 34bc 207c acbc c8d3 19bd
00000100: 2bbc bebc 75ac b83b 87dd f43a e72e 88bd
00000110: a9ce cabd 019b d2bc 1fbe d3bb 2510 fcbd
00000120: 6e36 cabc 70a7 0c3e bb2e 7b3e 9323 f1bc
00000130: 6390 a43c efb6 8fbc 77c2 7e3e f4c6 83bd
00000140: bc0e 06bc 02a8 9e3d 6a99 24be cc76 98be
00000150: fa83 823d 109d 123e 6ed6 b2bc f4e7 073e
00000160: 4943 9dbe df32 393e 42bb e0bd 67ab 93be
00000170: 83b2 3f3d 0de0 efbe dd0c b8be c37e 94be
00000180: 6ce5 91bc 52d9 2cbd 2b49 723c 50fd a3bc
00000190: 9f8a 1fbd 642b 1cbd 49ed 8cbc 030e 4cbd
000001a0: 2fb1 efbd 4627 63bd b621 4f3e b2c2 a1bd
000001b0: 72f5 afbc ca0b 823c cec2 11be bd4a 8abd
000001c0: 9773 cbbe 279a 3ebd ad33 be3d c569 393e
000001d0: 7563 a73d 076d 73bc ad0b 833c 58c2 88bd
000001e0: 494a 61bd a2a1 32bd e25e 0f3d eeb7 753e
000001f0: ec02 85bd ac48 a83d d5b4 a73c 2c0f cd3d
00000200: 9e65 98ba ca5b 8e3c aee2 78bb 572c f13c
00000210: b6c2 d3bc 985e 11bc 0b5a fabb bf4a 18bd
00000220: 033f aa3b 2d57 11bc cca3 16bd 2f82 2fbd
00000230: 5fb1 1f3d 72cd b63d d443 adbd 2685 63bd
00000240: 0292 543d 8869 b9bc 85ba 98bc f2f0 fbbd
00000250: 26f9 fdbb 6469 c3bd 51e6 66bc bcf4 223e
00000260: 5055 483e 0d83 163c 7f42 c23d a417 87bd
00000270: 6895 5bbe e0c5 46bc a7ed 7dbe 9d46 c7bd
00000280: 3419 2cbc d81a 55bd d70a 77bd 3242 fcbc
00000290: defc a03d 65a7 09bd cc70 dcbc 6fe0 a9bd
000002a0: 0571 fcbd 9b9e 54bc c03b b3bd 174c 293e
000002b0: 30f4 a7bc 8162 8bbd 6fbc 0abe f05a 473d
000002c0: e912 73bc 37b6 31bc 98bc 85be 559b 483e
000002d0: a33b 0a3e d467 81be eebe 6cbe f026 c9bc
000002e0: f8f0 68bd 2e88 0b3f b3f7 8d3c c7d5 06bd
000002f0: 102a a73c f3fc eebe 2c16 7eba a4fa 8d3e
00000300: 57b9 44bd 263e 5abe a1a5 94bd 18e1 9fbe
00000310: 15a5 0cbe d9cf a7bd dce3 76bd 7ab0 2bbe
00000320: 5498 b8bd 80af 32bd 4d60 a53e 27f3 13bf
00000330: 7c38 fbbe 6e23 3dbd 5f5e 6dbe 70a7 34bf
00000340: b960 60be 4454 0d3e fdcb e83d b738 2abe
00000350: e4bd 8bbc 0c37 cf3d fa1b 36bd 5628 0bbe
00000360: f176 983d 1cb0 c8bd 049b e0bd a664 723e
00000370: c104 8fbc 21c5 c3be 3c41 6a3d 0f7f 81be
00000380: 3609 1ebd aecf fbbd efc6 e3bd 75ca 7aba
00000390: 9cdf f5bd 06d7 bcbb c595 2e3d 2cfb 733d
000003a0: 7ea7 023e 8641 173e 46e0 0c3e 13d1 b13d
000003b0: a14b 2abd ceb2 803d 08ec 193e 1176 fb3d
000003c0: 1e13 29bd c826 36be 9123 be3b d733 cf3c
000003d0: 60d1 32bd a07b 67be 0f37 28be 0121 04be
000003e0: 8d06 bbbd 6706 75be ad76 053d c8a0 2fbd
000003f0: 71b7 0fbc 73f6 2fbe dadf b8be 221a 943d
-0.00441465 -0.008439255 0.003385348 0.012131508 0.0034960387 -0.017696705 -0.00068278157 -0.016244896
-0.012633107 0.0046631694 0.00037175743 0.011317614 -0.013468278 0.006953663 -0.0024817002 -0.0015838542
-0.013667084 0.08394033 0.0015423631 -0.016141124 -0.030963039 -0.044624962 0.033367638 0.10967977
0.086732246 -0.28325987 0.21197331 -0.07716335 -0.029407853 0.027553063 0.0035943 -0.05095899
-0.019762622 0.010442993 -0.0075701973 -0.017983936 -0.023368267 0.00058492005 0.0095676 -0.022537816
0.0045648236 -0.015206864 -0.008573359 -0.019468218 -0.02435905 0.00037498734 -0.020746324 -0.0029186795
-0.0005003181 -0.016541015 -0.025158452 -0.000533482 -0.037184253 0.004580366 -0.022435741 -0.005236869
-0.031168818 -0.009576474 -0.023087338 -0.009940338 0.009897938 -0.011044528 -0.021055281 -0.037555486
-0.023283085 0.005635793 0.0018681743 -0.06649571 -0.099026985 -0.025708677 -0.006461873 -0.12307767
-0.024684157 0.13735747 0.24529545 -0.029435908 0.02008838 -0.017543284 0.2487887 -0.06434432
-0.008182224 0.07746889 -0.16074148 -0.29778135 0.06372829 0.14317727 -0.021830764 0.13272077
-0.30715397 0.18085812 -0.109732166 -0.28841707 0.0468011 -0.46850625 -0.35947314 -0.29002962
-0.017809592 -0.04219944 0.014787952 -0.02001825 -0.03895056 -0.038127318 -0.01720299 -0.04981805
-0.11703717 -0.055457376 0.20227703 -0.07898463 -0.021479342 0.015874762 -0.14234468 -0.067525364
-0.39736626 -0.04653373 0.092872 0.18106754 0.08173267 -0.014857537 0.015996778 -0.06677693
-0.055002484 -0.043611176 0.035002597 0.23995945 -0.06494698 0.08216986 0.02047197 0.100126594
-0.0011626964 0.017377753 -0.0037976908 0.029440088 -0.025849681 -0.008872651 -0.0076401285 -0.03718066
0.0051955 -0.008870882 -0.036777303 -0.042848762 0.038987514 0.08925904 -0.08460203 -0.055546902
0.051897056 -0.022633329 -0.018643627 -0.12301816 -0.007750648 -0.09541586 -0.014092998 0.15913671
0.19563794 0.009186518 0.094853394 -0.06596306 -0.21443713 -0.012132138 -0.24797688 -0.09730265
-0.010504056 -0.052027553 -0.060313072 -0.030793283 0.078607306 -0.033606905 -0.026909254 -0.082947604
-0.12326244 -0.012977268 -0.08751631 0.16532932 -0.02050218 -0.068058975 -0.13548444 0.04867071
-0.0148360515 -0.010846666 -0.26120448 0.19590504 0.13499312 -0.25274527 -0.23119709 -0.0245547
-0.05687043 0.5450467 0.017330026 -0.032918718 0.0204058 -0.4667736 -0.0009692635 0.27730286
-0.048028316 -0.2131277 -0.07258154 -0.3122642 -0.13734849 -0.08193941 -0.060275897 -0.16766539
-0.09013429 -0.0436244 0.32300034 -0.57792896 -0.49066532 -0.046176367 -0.23180531 -0.7056799
-0.21911897 0.13801676 0.11367033 -0.16623197 -0.01705832 0.10117921 -0.044460274 -0.13589606
0.07444561 -0.09799215 -0.10967067 0.23671207 -0.017458322 -0.38236335 0.05719112 -0.2529225
-0.038583003 -0.12295471 -0.11121928 -0.00095669116 -0.12005541 -0.0057629375 0.0426233 0.059565708
0.12759206 0.14771089 0.13757429 0.08682456 -0.04157603 0.06284104 0.15031445 0.12278379
-0.041277997 -0.17788231 0.0058025797 0.025293274 -0.043656707 -0.22605753 -0.16427253 -0.12903215
-0.09132109 -0.23928224 0.03258388 -0.042877942 -0.008771763 -0.17183857 -0.36108285 0.07231547

encoder.linear_logvar.bias f4 [2]
00000000: a8c9 0dbf 19fe debe
-0.5538583 -0.43553236

decoder.linear.weight f4 [2048, 2]
00000000: de3e 17bf 0cb4 06bf 39f7 4bbe 2706 06be
00000010: 3202 243f 9c8e 113f 8919 ec3b 655e f0be
00000020: c13c 8abe ebf1 c93c d707 e53e 1e8d 803e
00000030: 1be2 b43e e156 c7bc dda7 7cbf 645b cdbe
00000040: 49fd 113e bc85 a4be 9b47 4f3e f093 35be
00000050: d180 a63e 3e25 943e 31aa 033f 8b8d d23e
00000060: 7633 98bf a150 013f dcec 543e 0967 3bbf
00000070: 824f 37bf 5460 cd3e c66c ce3e 7124 e83e
00000080: 1704 4f3f b363 07be 8d43 2dbf 7c54 033f
00000090: d7d2 113c 2e19 aebc f5c0 253e 32fd 2cbf
000000a0: 1a09 b0be cf5d 5fbe f7f3 3c3b 4c26 cebe
000000b0: 8e4d 5b3e 3c29 1c3e 2448 f6be d6b7 10be
000000c0: 32b0 0b3f 1454 f43d e426 d6be 2924 743e
000000d0: 874a e4be d5fd b0be 203d a0be 8b62 8c3e
000000e0: 1e01 1ebf 419b 02bf 3306 0abf b7e9 2dbe
000000f0: 8d69 cebd 41e3 11bf b192 02bd 32f8 ac3e
00000100: ac04 b2be dce4 4dbe a1cd 823d fb8a 76bf
00000110: 754c 403e db5f 943e c160 273f b86f 713e
00000120: 2e16 a03e 1c3d 983e 3eec 17be 36e0 0dbf
00000130: 4941 293f f140 4abe 6154 223f 1162 e3be
00000140: 95da 033f 5c1e 10be e054 433e 7c90 b1be
00000150: ded4 153f f946 edbb af61 3b3e b5d1 523e
00000160: 31b3 4fbf 01f8 183f 05f0 0bbf 16b0 8d3d
00000170: 11a8 6abe 016e b6be 901a a8be c73f 8dbe
00000180: 9bf5 103f 8401 2a3e 3a7f 34bf 4b8f 2fbd
00000190: f81c 143f 1e81 493e 666a ba3e 95ff 803e
000001a0: 1bca c03d 1a52 b9be 74c2 afbe 5fd3 143f
000001b0: 1fff 01bf 50d6 683e 93bf 2dbf e3cf e2be
000001c0: efa3 f1be 9791 743e 6e51 22bd 9edd a8bd
000001d0: 9076 c43e ec68 e0be c458 f43c 0188 263f
000001e0: 579a 20bf 0bef ce3e 23d2 c6be 231f a53c
000001f0: b5ba 0f3f 6c2b 093f 4c4b 84bf 3881 d6be
00000200: 0e8a 553e de6d 7bbf 2482 353f 99a3 35bd
00000210: 2d52 5e3f 1721 513e 42ed 2d3f 559b 933d
00000220: 7292 8b3e cd2c 5a3e 276c 04bf 0086 773d
00000230: 889a 623e e9ee 21bf a72f c6be e707 1b3f
00000240: 8a22 883d 4cb0 273e 3915 423f 0a12 84bc
00000250: 03e7 cbbe 1ff5 ccbe 8ae4 06bf bbf6 9dbe
00000260: 9515 843e ff1f 363e 7fd5 ea3b ffab 06bc
00000270: ab63 a93e 109d 39be c2e1 90bf f744 b5bd
00000280: d14c 943e d580 9f3e 5555 003e 661a 8cbf
00000290: f3f8 da3d 56c3 9ebe d8ac 9a3e ee62 df3e
000002a0: add2 10be d796 bebe 6263 50be 0543 9cbe
000002b0: 34a9 bf3e 7b62 9fbd 619e 3dbf 0f93 0abf
000002c0: c7d9 4dbd 591a 103f 99a1 8abe 1e7f 22bd
000002d0: db61 103f 84c3 403c 843c 14be ff41 cbbb
000002e0: 0760 2dbf 161c ee3e aa86 1abe 8f11 34bf
000002f0: 96f3 23be 2148 eebd 9e92 c13e c801 f23e
00000300: 0375 cfbe f476 f03e 8f65 143f 24c8 82bf
00000310: 7bd8 083f 7f0d 78be d1d5 0abf a4bb a1be
00000320: 0bea e8be b48b f9bd 57b3 e53b 48d4 a63e
00000330: d0c6 413f 1202 c0be e4e0 233e 315b 0bbf
00000340: 7d20 073f 114e 1c3e e865 223f 693d 7bbe
00000350: b221 2e3f 0623 ab3e 5b52 333f 8f8b a6be
00000360: 2fd4 c4be b409 a93e 0535 c83e d7cc 39bf
00000370: bbfa f83d cb15 2abe 9aba 9dbd fbed 9a3e
00000380: 97f5 0f3f 98e8 bd3e 77d0 30bd 4132 e13e
00000390: e7d1 363f e1e3 0bbd 83ca 223f f3ca a43e
000003a0: 4366 14bf 2c74 b2be b24b 063f 13ca 62be
000003b0: e60f 35be 328a 6bbd 5f6e debe 8437 023f
000003c0: 2e9d 24bd e865 65bd ce30 2bbe be43 5ebf
000003d0: 4a61 8fbe 2aff fe3e 4fb9 873e ed11 68be
000003e0: 0177 953e 74b8 f9be a52f ae3d 7a88 323f
000003f0: b70d 43bf 0470 a1be 62c5 61bf 0f61 563d
-0.590803 -0.5261848 -0.19918527 -0.13088284 0.6406585 0.5685823 0.0072051925 -0.46947017
-0.26999477 0.024651488 0.44732544 0.25107664 0.35328755 -0.02433342 -0.9869364 -0.40108788
0.14256777 -0.3213328 0.20242159 -0.17732215 0.32520154 0.28934664 0.51431566 0.41123614
-1.1890705 0.50513655 0.2079348 -0.73204094 -0.71605694 0.40112555 0.40317363 0.45340303
0.80865616 -0.13221626 -0.676812 0.5130079 0.008900366 -0.021252241 0.16186889 -0.67573845
-0.34381944 -0.21813129 0.0028831938 -0.40263593 0.21416304 0.15250105 -0.48101914 -0.14132628
0.5456573 0.11930099 -0.41826546 0.23841919 -0.4458811 -0.34568658 -0.31296635 0.27418932
-0.61720455 -0.5101815 -0.5391571 -0.16983686 -0.10078726 -0.56987387 -0.031878177 0.33783108
-0.3476919 -0.20106834 0.06386877 -0.9630582 0.18779166 0.28979382 0.6538201 0.23577774
0.31266922 0.29734123 -0.14836213 -0.55420244 0.6611524 -0.19751336 0.6341 -0.44410756
0.51505405 -0.14074081 0.19075346 -0.34680545 0.58527935 -0.0072411266 0.18298982 0.2058781
-0.811328 0.59753424 -0.54663116 0.06918351 -0.22915675 -0.356308 -0.32832766 -0.2758772
0.56624764 0.1660214 -0.7050663 -0.042861264 0.578567 0.1967816 0.364093 0.25194994
0.094135486 -0.3619545 -0.34328043 0.58135027 -0.5077991 0.22738004 -0.67870444 -0.4429923
-0.47195384 0.23883663 -0.03962844 -0.08245395 0.38371706 -0.4383005 0.029827483 0.65051275
-0.62735504 0.4041675 -0.38832197 0.020156449 0.5614427 0.5358188 -1.0335479 -0.4189546
0.20853445 -0.9821452 0.70901704 -0.044345472 0.8684414 0.20422779 0.6794015 0.072073616
0.27260166 0.21306153 -0.5172753 0.060430527 0.22129261 -0.6325517 -0.3870823 0.60558933
0.06647213 0.16375846 0.75813633 -0.016121883 -0.39824685 -0.40030763 -0.5269247 -0.30852303
0.25797716 0.17785643 0.007166564 -0.008219718 0.33083853 -0.18126321 -1.1318896 -0.088510446
0.28964856 0.3115298 0.12532552 -1.0945556 0.106920145 -0.31008404 0.30209994 0.43630165
-0.14142866 -0.37224457 -0.20350412 -0.30519882 0.3743378 -0.077824555 -0.7406979 -0.54130644
-0.050256517 0.56290203 -0.27076414 -0.03967201 0.56399316 0.011765365 -0.1447621 -0.0062029357
-0.6772465 0.46505803 -0.15090433 -0.7033929 -0.1601089 -0.11634851 0.37807173 0.47266984
-0.4051896 0.46965754 0.57967466 -1.0217328 0.53455323 -0.24223898 -0.5423251 -0.3158847
-0.4549106 -0.121848494 0.0070099044 0.32583833 0.7569399 -0.3750158 0.16003758 -0.5443602
0.5278395 0.15264155 0.63436747 -0.24535145 0.68020165 0.33425158 0.7004754 -0.3252835
-0.38443133 0.33015215 0.3910295 -0.72578186 0.12157198 -0.16609876 -0.07701607 0.3025969
0.56234115 0.37091517 -0.043167558 0.43983653 0.71414036 -0.03415287 0.6359026 0.32186088
-0.5796854 -0.34854257 0.5245925 -0.22147398 -0.17681846 -0.05750484 -0.4344358 0.5086596
-0.04018896 -0.05600539 -0.16717836 -0.86822116 -0.28003913 0.4980405 0.26508567 -0.22663088
0.29192355 -0.4877354 0.08505181 0.69739497 -0.761928 -0.31530774 -0.8819181 0.052338656

decoder.linear.bias f4 [2048]
00000000: 9c4e 44be be8a 533e 4b18 70bf 6b2f d3bd
00000010: ba97 763e e490 623d fe37 d13e 470e a83d
00000020: c791 e1bc a3b3 2dbf a64f 4c3e c3ae c6bc
00000030: e937 7abe 768b 17be b3a4 0f3f 68e0 29bf
00000040: 4301 46be f6c3 cd3c 7217 cebe 49f9 483e
00000050: cce0 bd3e 1978 26be d8c3 febe ca94 afbe
00000060: 2d88 96bd d6d2 843e a8eb 73be 3b79 863e
00000070: 2505 0ebe ea38 f8be 8879 8cbe cdcd 883e
00000080: 11f8 ec3d 180c 09be 925e 47bf 2659 16bf
00000090: fab3 9c3e 988c 23bf 454c 69bf 95b1 33bf
000000a0: 58e4 10bf 35a0 abbe a7a3 573d f4bc 063e
000000b0: 9528 56be 4eb2 063f 9125 a43e 5df6 94bc
000000c0: 7c83 9ebe 7301 813e 55fc a73e 7b1e 85bd
000000d0: 995c 093f 9d71 473d 3d34 ef3e d288 aabe
000000e0: 173d 023f 8d94 d43e 0eb7 c23e ffff 02bf
000000f0: 692b 2bbf e42c d43e 8baf 6dbe df18 b93e
00000100: 1e9f ae3e cfb2 4ebf 988f d5be 23e4 cb3e
00000110: ac2c 14bf ef44 3abf c99b 51be f70e 26be
00000120: 3efd 863e 2cd4 a6be 35fe 36bf 4a17 03bf
00000130: 3ffa 3a3e 46cc 6f3e 4e77 673e 3ee6 b03c
00000140: f6ad 993d b85b 533e 4819 dd3e 4f93 30bf
00000150: a0cf c23e 6cd2 c13e 7d40 5b3e 3802 d6be
00000160: bb26 a93e 8105 29be b0d9 41bf 63fe e93e
00000170: 11ea ca3d 83b7 bb3c 2086 5cbf 623d 803e
00000180: a3fe fe3d caea 3dbf faf8 ab3e 2391 dd3e
00000190: c531 d03e 0cd0 253e 70ec e7be b42c d2bc
000001a0: eeb6 f0bb 7ec1 1bbf a545 53bf 665d 37bf
000001b0: 5af5 e43e 5a71 45bf 8c5b 823e 4dc0 9d3e
000001c0: 281f dbbe f7e6 553e fe63 58bf 6b7b 11bf
000001d0: ef33 adbe 5ccf 7abf ecbc 853e f054 1c3f
000001e0: 7404 5a3e 70bf 1cbf 6a06 7ebe d9d8 243d
000001f0: 3351 cb3e edf3 b1be ac50 5d3e 761b 9dbe
00000200: 525a ca3e 3344 39bf 2d30 52bf 0028 90be
00000210: c777 e23e e6fe 353e 83e2 e93e 93df dbbe
00000220: 0681 63be ad14 ccbe 9f5f 44be e1a2 15bf
00000230: 3652 cabe 4bc4 9abe 9048 c8be 42f0 00bf
00000240: febb 793e 6b3d ac3d e3ad 0b3f a4df 8cbd
00000250: 8dce 283e 4363 b5be 19af a13e 2893 fcbe
00000260: df63 d5be 1952 e53d 3342 a63e 17db b03d
00000270: 1b2e 803e 9302 bb3e 6cb4 b53e 1b4d 3bbe
00000280: 36c5 ccbe f95f 22bf c6a6 ebbe ebfe 2fbf
00000290: 4d6e 0dbe fa3a d3be 3bff 1a3e 54ae 11bf
000002a0: 0911 6bbd f08d d73e 288e ab3e 5091 d73d
000002b0: 5459 00bf 71a0 b43e 01c6 e13e 45df 1fbf
000002c0: 2db3 4a39 691b 053e cfaa 7bbd 49a1 72be
000002d0: 1d44 f83e 12cc 843e 4508 9ebe 895c 05bf
000002e0: c28d 353e f653 54bd bdf3 333e 677d ca3e
000002f0: d651 903e b67e 133e 17c7 1e3d ce22 c83e
00000300: bbba 323d f78d 033e e97d 1d3d a2b6 9b3e
00000310: 3060 863d 5c47 bebe e519 01bf bbc7 8cbf
00000320: fbbb febe 7941 c9be 9fd9 64bd 630b fb3d
00000330: 59ab 383e 50d7 0b3e 24b5 2cbe 4285 393e
00000340: bb4f 64bc 9c03 95bc 262b debe 024c d73e
00000350: 9f16 28bf a8f2 9e3e e705 4abf b38e 24bc
00000360: 73a1 953e a108 d43d 5dfd 923c 83d4 dcbe
00000370: 468b 14bd 431f 0bbf f3f8 77bd f8a9 903e
00000380: 637c 223f 83f7 063e fce5 d9bd 27f4 bfbe
00000390: bb49 6dbe 4e89 3fbe d01d d1be be01 05bf
000003a0: c443 043f a3d6 5abe f545 19bf 0112 5e3e
000003b0: 8552 d13e 0648 163e 756b 303e dd12 a6be
000003c0: f727 af3e dd3f ba3d 8161 1cbf 7b42 2bbf
000003d0: fb1b 09bf dcf4 103e 850a 28bf b9c5 df3d
000003e0: 3302 aabe 543a 03bf 74f8 80be eecf 723e
000003f0: 4cbc 493d d8f8 1bbf 0bb1 0cbe be1d 2b3e
-0.19170612 0.20658395 -0.9378707 -0.10311779 0.24081317 0.05531396 0.4086303 0.08205848
-0.027535332 -0.6785223 0.19952258 -0.024253255 -0.2443539 -0.14799294 0.56110686 -0.6635804
-0.19336419 0.025117856 -0.40252262 0.19626345 0.3708557 -0.16256751 -0.49758792 -0.34293205
-0.07350192 0.25942105 -0.23820364 0.26264367 -0.1386915 -0.48480922 -0.2743647 0.26719514
0.115707524 -0.1338352 -0.7787868 -0.5872978 0.3060606 -0.63886404 -0.91132003 -0.70192844
-0.56598425 -0.33520666 0.052646305 0.13158017 -0.20913918 0.5261582 0.3205991 -0.018183881
-0.3095969 0.25196418 0.32809702 -0.06499954 0.5365692 0.048692334 0.46719542 -0.3330751
0.50874466 0.41519585 0.38030285 -0.5117187 -0.66863114 0.414405 -0.23211496 0.36151788
0.34105772 -0.8074159 -0.41711116 0.39822492 -0.57880664 -0.72761434 -0.20469584 -0.16216646
0.26365083 -0.3258375 -0.7148164 -0.5120741 0.18259524 0.23417768 0.22604105 0.021594163
0.075038835 0.20640457 0.4318335 -0.68974775 0.3804903 0.37855852 0.21411319 -0.41798568
0.33037362 -0.16506006 -0.7572279 0.45701894 0.09907926 0.022914654 -0.8614216 0.2504683
0.12450912 -0.74186385 0.33588392 0.43274793 0.4066297 0.16192645 -0.45297575 -0.025656082
-0.0073460257 -0.6084212 -0.82528144 -0.7162689 0.44718438 -0.77126086 0.2546047 0.30810776
-0.42797208 0.20888887 -0.84527576 -0.56828946 -0.33828685 -0.97972655 0.26120698 0.61067104
0.21290761 -0.6122961 -0.24807134 0.040245865 0.39710388 -0.34756413 0.21612805 -0.30685014
0.39522034 -0.7236969 -0.8210476 -0.28155518 0.44232008 0.17773017 0.45680627 -0.4294401
-0.22217187 -0.39859524 -0.19177102 -0.5845166 -0.39515847 -0.30227885 -0.3911786 -0.50366604
0.2438812 0.08410152 0.54562205 -0.068785936 0.16485043 -0.35427293 0.315789 -0.4933102
-0.41677758 0.111972995 0.3247238 0.08635538 0.25035176 0.365254 0.35489213 -0.18291132
-0.3999421 -0.6342769 -0.46025676 -0.6874835 -0.13811608 -0.41255933 0.15136425 -0.5690663
-0.057389293 0.42100477 0.33506894 0.10525763 -0.50136304 0.35278657 0.44096377 -0.6245006
0.0001933097 0.12998737 -0.061442193 -0.23694338 0.48489466 0.25936943 -0.30865684 -0.5209432
0.17729858 -0.051837884 0.17573448 0.395488 0.28187436 0.14403805 0.038764086 0.39089054
0.04363511 0.12847124 0.038450155 0.30412775 0.06561315 -0.37163818 -0.50430137 -1.0998453
-0.49752793 -0.39307764 -0.055871602 0.12258031 0.18034114 0.13656354 -0.16865975 0.1811724
-0.013935025 -0.018190198 -0.43392295 0.42050177 -0.6565952 0.31044507 -0.78915256 -0.010043788
0.29224738 0.10353208 0.017943079 -0.43130884 -0.036265634 -0.54344577 -0.06054015 0.28254676
0.6347105 0.13180356 -0.10639569 -0.3749096 -0.23172657 -0.18704721 -0.40843058 -0.51955783
0.516659 -0.2137094 -0.5987237 0.21686555 0.4088327 0.14675912 0.17228492 -0.32436267
0.34210178 0.09094212 -0.6108628 -0.66898316 -0.5355832 0.14155906 -0.6564105 0.109263845
-0.33204803 -0.51260877 -0.25189555 0.23712131 0.04925184 -0.6092658 -0.13739412 0.16710564
